models/nnmini.pt (torch, 75317 bytes, 16 tensors)

fc1.weight f4 [64, 5]
00000000: 00c6 a7be 8d6f b9be 1bb1 a3be 77b3 bebe
00000010: 18ed 023e 7c6b d7be 415c 9bbd 70f1 66be
00000020: e5de 7e3e 1cc0 d53a 3c74 37be 92c7 27be
00000030: b666 553d 30ca debd 1e54 05bf 3941 b7be
00000040: dfeb a23e ca9a 493e f21d 0c3d 0c22 87be
00000050: 6688 683e 01d0 963d db12 ddbe 5ebe 65bf
00000060: b782 34bd 08f8 7f3d f4be 173e 0aee 7e3d
00000070: 0b21 a4be a11d a0bd 5e5a 183f 9f2c d6bc
00000080: 8b38 54be 9cbb eebe 00b3 70be db04 ff3c
00000090: 2d8d 1fbe f61e 39be 8a03 d23e c8b1 643e
000000a0: e7b7 66be 19ff d1be f9fa f13e a120 8b3e
000000b0: 7d36 14be 0d9b a9be 8df1 983b 565d 9e3d
000000c0: e791 9fbe a99b d6be 96ce bd3e 9086 303f
000000d0: 312a ecbe 40f4 f5bd bc05 5dbc 914e 0dbe
000000e0: e574 013f 6c18 39bf b06c dc3d 8057 343e
000000f0: 55be c33e 446f 67bd 64d3 b0be 98a3 d4be
00000100: 05d3 a43e d762 9e3d 29f6 c23e 830e 033d
00000110: 5d8e 6b3e 3502 edbd 128e 683e 537f ddbe
00000120: 71d0 b5bd dcb5 c23e 5e95 d6be b890 033e
00000130: 8504 d23e 9c0a 96be e42e a2bd 9f94 c2be
00000140: 2027 db3d 5a2c d73e 0be7 9cbe b0bb e13e
00000150: d96d 583e ec71 36be 2cc2 863f ba28 0bbe
00000160: 94b7 023d f0cf 5abe ba36 83be 9842 313f
00000170: ba9f d8bd 2640 dabb 6957 d7bc a031 16be
00000180: a985 b93d 9105 30bc 0b2e 6bbe 0b2f aebe
00000190: 912c 81be 99a1 df3e a95a 31be 1cb8 02bd
000001a0: 3534 04bf b68b 8bbe b838 2f3f 10fc bbbe
000001b0: 9609 8f3e 6649 a23e e480 6b3e 31d7 90be
000001c0: 2acc 8fbc 05c7 54be ed8f 85be a1c1 6e3e
000001d0: 792e 2dbe 29f2 c1be 98c4 223e 84d8 09bd
000001e0: 8bb4 b93d c974 69be 665b 3e3d 8dee 0fbb
000001f0: 03fd 653f 51bb dbbe 32b1 8ebe f74e 5f3e
00000200: 6a00 97bd a611 dcbd aeb4 16bd a343 cc3e
00000210: fe50 c3bd 5330 dd3e 636a 20bf d70c 303f
00000220: 3316 80be 64a5 d0be 99d8 5c3e 862d ecbd
00000230: 9e4d 80be d468 1ebf 7bcc 8e3e 78ec 50bd
00000240: 4d43 6c3c 40f9 293f 705d cfbe d0b1 a2be
00000250: 9137 2e3e d310 d1bc 01d3 9dbe 9cba 0fbf
00000260: aa05 b03e 8ccf f3bd dd0a 5c3f deeb 2fbe
00000270: d23c 7d3e ecc8 403a 8e27 a43e 3b31 103f
00000280: d67e 6a3e dfad cfbd e000 3c3e c954 87be
00000290: 61bf 023e 8441 2c3e a866 51bc 998c 49be
000002a0: 17cc ed3e fe80 af3e 5635 093f 7e30 f8be
000002b0: a444 8bbe 428d 4e3e 02cc b7bc c2be 053f
000002c0: 9e6b 4ebe 7228 5f3e 1f20 5cbe 5c2e 1f3d
000002d0: 9bf2 273e 4a4a 823d 085c fa3e c4a5 15be
000002e0: de7f 8bbe ba40 d43e 0cbb 2cbf 1644 353e
000002f0: 1b71 183d d9f6 f93d 44b3 d4be 005b cebe
00000300: eb96 ab3e bfc3 ab3d a981 173e ad13 7b3e
00000310: f786 49be 9fc3 adbe 152a ddbd c17f 6ebe
00000320: c69f 69be 115c 35be 0476 d9be 1202 563d
00000330: 4615 cbbe 6b1a ff3d 8721 153f 748c 683c
00000340: e4ba 37be 807a 2abe 97f4 0abe 34d4 483f
00000350: 3dc1 d9bd 6ed7 b43c 8822 b5bd a20c fb3e
00000360: d2c2 a2be 491a 923e b1b0 ae3e ba74 7c3d
00000370: ed46 d9bd 7dfd cd3e d217 bf3e 5d68 20bf
00000380: 77e3 7fbe a6dc 51be 8c71 7a3e 9c90 a03e
00000390: 722e dcbe 7512 543e 7ae0 57be 1ea2 c73e
000003a0: 0d54 97be 3a55 1bbd 4a58 613e d269 ecbe
000003b0: 4a68 083f 1405 853e bda3 46be 828d c33e
000003c0: 63f7 bf3e ac47 0b3d 4131 78be 0854 e83e
000003d0: 8a14 abbc b686 3fbc 148c 66be 8e9c 95be
000003e0: f452 aabe 2429 883d 8435 b6be a92d 313e
000003f0: 16c8 bfbd b9b9 cfbc 1aa6 ef3b 4b72 c53d
-0.3276825 -0.3621792 -0.31971058 -0.37246296 0.12785757 -0.42074192 -0.075859554 -0.22553039
0.24889715 0.0016307863 -0.17915434 -0.16384724 0.052099906 -0.10878408 -0.5208148 -0.35791948
0.3182058 0.19687954 0.034208246 -0.26393163 0.22708282 0.07363892 -0.43178448 -0.897436
-0.044069972 0.0624924 0.14818937 0.06223873 -0.3205646 -0.07818151 0.5951289 -0.026144324
-0.20724694 -0.4662751 -0.23505783 0.031130245 -0.15581198 -0.18078217 0.41018325 0.22333443
-0.2253109 -0.41014937 0.4726179 0.2717333 -0.1447391 -0.33126107 0.004667467 0.07732646
-0.31166002 -0.41915634 0.37071675 0.68955326 -0.4612594 -0.120094776 -0.013490137 -0.13799502
0.5056899 -0.7230289 0.10762918 0.17611504 0.3823115 -0.056502596 -0.34536278 -0.41531062
0.32192245 0.07733696 0.3807843 0.03199626 0.23003526 -0.115726866 0.22710446 -0.43261203
-0.08877648 0.38029373 -0.41910833 0.12848175 0.41019073 -0.2930497 -0.079191 -0.38004014
0.10700822 0.42026025 -0.30645022 0.44088507 0.21135654 -0.17816895 1.0528007 -0.13589755
0.031913355 -0.21368384 -0.2562769 0.6924224 -0.105773404 -0.006660479 -0.026286798 -0.14667368
0.09058697 -0.010743515 -0.22966783 -0.34020266 -0.25229314 0.43677977 -0.1731974 -0.03191386
-0.5164216 -0.27255028 0.6844592 -0.36715746 0.27937 0.31696624 0.22998387 -0.28289178
-0.017553408 -0.20779045 -0.2608637 0.23316051 -0.16912259 -0.37880066 0.15895307 -0.03365375
0.09067639 -0.22798456 0.046473883 -0.0021962256 0.8983919 -0.4291635 -0.27869564 0.21807466
-0.07373126 -0.10745554 -0.036793403 0.39895353 -0.095369324 0.4320093 -0.62662333 0.6876959
-0.25016937 -0.40751183 0.21567 -0.115321204 -0.25059217 -0.61878705 0.2789038 -0.051006764
0.014420343 0.6639595 -0.40500975 -0.31776285 0.17013384 -0.025520718 -0.30825046 -0.5614412
0.3437932 -0.11904821 0.85954076 -0.1717982 0.24730232 0.00073541584 0.32061428 0.5632512
0.22899947 -0.10140585 0.18359709 -0.26431873 0.12768318 0.16821867 -0.012780823 -0.1968254
0.4644477 0.342781 0.5359701 -0.48474497 -0.27200806 0.20171073 -0.022436146 0.522442
-0.2015824 0.21792772 -0.21496628 0.03886257 0.1640114 0.06361826 0.4889834 -0.14614016
-0.27245992 0.41455632 -0.6747291 0.17701754 0.03721724 0.122052856 -0.4154302 -0.40303802
0.3351358 0.08386945 0.14795555 0.24519224 -0.19680391 -0.3393831 -0.10799042 -0.23290922
-0.22814855 -0.17710902 -0.4247285 0.05224807 -0.39664668 0.12456211 0.58254284 0.014193643
-0.17942387 -0.16648293 -0.13569866 0.78448796 -0.106325604 0.022075381 -0.08844477 0.49033076
-0.3178926 0.2853568 0.3411918 0.061634757 -0.10609231 0.4023246 0.3732286 -0.62659246
-0.24989115 -0.20494327 0.24457377 0.31360328 -0.43004185 0.20710166 -0.21081725 0.38990873
-0.29556313 -0.037923075 0.22006336 -0.46174484 0.5328413 0.25980437 -0.19398399 0.381939
0.3749343 0.0340039 -0.24237539 0.4537661 -0.020883817 -0.011689832 -0.22514373 -0.29221004
-0.33266413 0.06648472 -0.35587704 0.17302574 -0.09364335 -0.025357114 0.007313502 0.0964094

fc1.bias f4 [64]
00000000: 77e6 3f3e 82e9 a3bd 307f c43e bc8a e8bd
00000010: ea7c fc3a 0978 f9bd 1998 5bbe 8fa1 d3be
00000020: 8423 cc3c 8ac8 c9be 9341 14be e008 25be
00000030: a1f5 a2be 5222 98be 7524 2f3e 3e13 bbbe
00000040: aeca e9be d606 06be 6ba3 c3bd 9661 443d
00000050: 4984 473e 6e89 89be 81cc 57be 0b37 00bc
00000060: 13b7 45bf 17a6 dabe 88fb d53d f18b d7bd
00000070: 60c9 9d3e d97e 8dbd b914 92be 6222 e5be
00000080: d326 bfbe ac8d cbbe 9f3c 7ebc 25b6 aebe
00000090: fb14 c13c 9f14 3b3c 91a8 b4be b09f 5c3e
000000a0: 003a 66be 5d26 16be b9c8 1ebe 2e79 ffbe
000000b0: 7b34 3c3e c97c a3be 329c babe caf3 7cbe
000000c0: cf8b cfbe 27e0 9dbe a2d2 72bd 4f3b 973e
000000d0: 3c48 bcbe ee80 f23d 6fd9 d8be def6 29be
000000e0: f69e 3ebf 5259 b73e 3ec6 8cbe 49c2 f0bd
000000f0: 04bb 5ebe 8835 cbbe 5352 b1be 3f4b c7bc
0.18740259 -0.080035225 0.38378286 -0.113545865 0.0019263302 -0.12181098 -0.2144474 -0.41334197
0.024919279 -0.39410812 -0.1447814 -0.16116667 -0.31828025 -0.29713684 0.17103751 -0.36538118
-0.45662445 -0.13088545 -0.09552654 0.047944628 0.19484057 -0.26862663 -0.21074106 -0.007825623
-0.77232474 -0.42704841 0.104483664 -0.105247386 0.308177 -0.0690896 -0.28531435 -0.44752795
-0.37334308 -0.39756525 -0.015517383 -0.3412334 0.023569575 0.011418491 -0.35284856 0.21545291
-0.22483063 -0.14663072 -0.15506257 -0.4989714 0.18379395 -0.3193114 -0.36447293 -0.24702373
-0.40536353 -0.30835077 -0.059282906 0.29537436 -0.3677386 0.11840998 -0.4235339 -0.16598079
-0.74461305 0.35810333 -0.27494997 -0.11755807 -0.21751028 -0.3968928 -0.3463312 -0.024327872

fc2.weight f4 [64, 64]
00000000: 1ab0 62bd 4f6c 4cbb ce34 9abc d93d 9b3d
00000010: 80a4 2dbd 5e30 f3bd 4531 71bd 80ef 8e3d
00000020: 0f75 5bbd d050 953c cf02 d1bd f1ab 673e
00000030: 85fd 063e 7c22 003e 69a9 963b 004b cfbc
00000040: 280c d9bc 1fb2 6fbd 97aa 753e b7f1 15bd
00000050: d647 2d3d 226e fc3d 7869 973c 39c4 e13c
00000060: 558d eabd 74bc a63d 72e8 443d 682d 8f3c
00000070: 8b96 71be 7007 763b ddd9 93be c037 52bb
00000080: 1cc5 263d 0341 efbc de49 85bc 0bf0 d2bd
00000090: f1e2 84bc 8d66 1b3c 6c72 a43d 98f0 1b3c
000000a0: b8d2 febc 3f6b 663e 6711 783e d2e2 cf3d
000000b0: 1673 483d cca5 69bd 20d7 8d3b 4069 353d
000000c0: 77a3 f43b f00f 16bc 6ce7 de3d 3075 d1be
000000d0: f886 a03d 808c 493e 92d9 df3d ae72 67bc
000000e0: ef49 4a3c 7ef4 b03b 71b8 2b3d a455 adbc
000000f0: 18de cbbc ec94 573b 94a7 60bd f0b1 413c
00000100: 78da d53c f73e 813b a18f 3ebd c04e 70bd
00000110: 3539 b4be aff4 eebc 0ef5 3f3e 6d8a 8dbd
00000120: a1a7 d3bd d043 4e3c 75fe 13bc c994 253e
00000130: e4b1 ec3d 3643 bebd 7bc9 ef3d f43a 75bd
00000140: 38f6 6b3d 136d 05bd b328 313d 16b2 61bd
00000150: 548f 8fbd 29fe a0bd 88c7 a03d b551 de3d
00000160: e3a2 a13b 60d0 013d b188 23bd 30fb b5bd
00000170: 394d 20bd 0526 55bc d735 b0bc a3c4 863b
00000180: 6029 eb3b 978c 263c 743e c53d 4239 0a3e
00000190: d3bc 81bd 50ed c1b9 80e7 bcbb 5f74 e23d
000001a0: e0e1 c7bb 4499 573d a0d5 763c 361c 29bd
000001b0: 4fac df3c 3062 4f3c 4877 f03d a299 92bd
000001c0: 588f 9a3d 0407 103d 4013 e53c 2de1 98bd
000001d0: d0a3 55bc d528 1bbe 602a 963c d3a6 183d
000001e0: a236 093e 3944 95bd 0ab7 ebbd 3e7d 4c3e
000001f0: f017 49be e743 1a3b f0bf e5bd 86d7 a83d
00000200: f067 b4bd 9ab1 f83d a59a 1f3e cbec ca3d
00000210: 2554 7b3d d803 973d 1bf6 b63d a5ba ffbb
00000220: 7dcb 923d 24dc 7a3d db4f f93b f186 3bbe
00000230: eb95 35bd 546b 883d 1bbb 043e a06f 9fbb
00000240: d882 103c 79c3 59bc cfd0 84bd 655c bc3d
00000250: b5a9 34be d757 d9bc f28c f93d 829f cb3d
00000260: 2348 65be a82c 61bd b78a 243c 8777 88bd
00000270: 2df1 0c3e 6ae7 b63c 0b5b 69bc 15b3 3abd
00000280: 4a41 f03d 025f 7bba f811 c6bc 2888 f43d
00000290: c10b 4dbc e412 063b e4c6 c8bd c7ee 553d
000002a0: 3023 2e3c 3a34 83ba 250a 34bd cf74 543d
000002b0: 0bb4 d23b e081 88bc c096 013b cd61 2ebe
000002c0: ac73 6dbd a007 ce3d c848 cbbc 4785 2abd
000002d0: 39c7 ac3c 7586 38be ae30 a0bd fd0e 4d3b
000002e0: a41c 5bbe cb63 8c3e 1ebc 0c3e d5a6 c63d
000002f0: c9a1 c73d 42ce 3bbc ecaf 33bd 0071 77ba
00000300: 5857 cebc 0c14 523d f6f9 94bd fcf5 913c
00000310: 3392 bd3d a284 5a3d 909f c2bd c248 65bd
00000320: 824b 4d3c 16af 9fbd 295d ddbc bb48 3fbb
00000330: 1a64 1e3d 357a 283e 5bbd 2e3b b89e 4fbd
00000340: 46f3 3f3d abf8 a3bb 1216 0f3e e0fa 8e3d
00000350: 2f26 e6bc ac72 1d3d e0c5 5b3d ee94 72bd
00000360: cf61 69be c226 95bd df4c 053b 7e71 8b3c
00000370: 762e 54be 4e17 85bc d770 c1be d396 c03b
00000380: 3817 003d fbc5 8f3c d4d1 0cbd de5d 043d
00000390: 3b16 483d deef dfbb cc67 a73d ed09 963c
000003a0: 4ad8 8b3d 78cd 0d3e 9ae9 8e3e 60cc 23bd
000003b0: 0018 bb3d 0671 b7bd c851 f8bd 3438 1a3e
000003c0: 2352 933d f0a8 473d 005b 8f3a 4502 a5be
000003d0: 65be a5bc 7620 b2bc a04d 53bc 5557 7e3d
000003e0: e963 8ebe 2921 31bc 7c44 353d 5a61 71bd
000003f0: c796 9bbd e043 f7bc 2cdd 1dbd 7c15 dd3d
-0.055343725 -0.0031192487 -0.018824007 0.07580156 -0.042393208 -0.1187446 -0.058884878 0.06979275
-0.053578433 0.018227011 -0.10205614 0.22624184 0.13182648 0.12513155 0.004597832 -0.025304317
-0.026495054 -0.05851948 0.23990856 -0.03660747 0.042304836 0.12325694 0.018482909 0.027559387
-0.11452738 0.08141413 0.04807324 0.017477706 -0.23592584 0.0037541054 -0.28877154 -0.0032076687
0.040715322 -0.029205805 -0.016270574 -0.10299691 -0.016221495 0.009484899 0.08029637 0.009517811
-0.031106338 0.22501849 0.24225388 0.101506844 0.04893788 -0.05704288 0.0043286234 0.044289827
0.0074657756 -0.009159073 0.10883984 -0.4090972 0.07838243 0.19682503 0.1093017 -0.014126463
0.012346729 0.0054002395 0.041923944 -0.021159 -0.024886176 0.003289516 -0.054847315 0.011822209
0.02610515 0.0039442736 -0.046523694 -0.05866885 -0.35199896 -0.029169409 0.18745825 -0.06911168
-0.10334707 0.01258941 -0.009032835 0.16170038 0.115573674 -0.09290163 0.11708351 -0.059870675
0.05760786 -0.032574724 0.043251704 -0.055101477 -0.070097595 -0.07860977 0.078505576 0.10855428
0.0049327477 0.031692863 -0.03992528 -0.08885801 -0.039136145 -0.013009553 -0.021510048 0.0041127964
0.007176563 0.010165355 0.096310526 0.13498405 -0.063348435 -0.0003698864 -0.0057649016 0.11057352
-0.0060999244 0.0526364 0.015065581 -0.04128667 0.027303843 0.012657687 0.11741501 -0.071582094
0.07546872 0.03516294 0.02796328 -0.07464824 -0.013039544 -0.15152295 0.018330753 0.03726847
0.13399747 -0.07288403 -0.11509521 0.19969651 -0.19638038 0.0023539008 -0.1121825 0.08244233
-0.08808887 0.1214325 0.15586336 0.09908446 0.061359543 0.0737378 0.0893366 -0.007804232
0.071677186 0.0612451 0.0076083965 -0.18313195 -0.044332426 0.06661096 0.12962 -0.0048656017
0.008820258 -0.013291233 -0.064851396 0.0919731 -0.17642863 -0.026531143 0.12185086 0.09942533
-0.22390799 -0.05497423 0.010042838 -0.06663423 0.13763876 0.022327144 -0.014242898 -0.045580942
0.11731203 -0.00095890474 -0.02417849 0.11940032 -0.012515009 0.0020458037 -0.098035604 0.05222967
0.010628507 -0.0010010072 -0.043954987 0.05186921 0.006430154 -0.016663492 0.0019773692 -0.17029496
-0.05797164 0.10060048 -0.024814978 -0.04163101 0.02109109 -0.18020041 -0.07821785 0.0031289451
-0.21397644 0.27419886 0.13743636 0.096997894 0.09747655 -0.01146275 -0.043868944 -0.00094391406
-0.025188133 0.05128865 -0.07274239 0.01781749 0.09256401 0.053349145 -0.095030904 -0.05597759
0.0125302095 -0.07797067 -0.027021961 -0.0029187638 0.038669683 0.16452868 0.0026663158 -0.050688475
0.046862863 -0.0050040088 0.13973263 0.06981444 -0.02809438 0.038439438 0.053655505 -0.05922406
-0.22791217 -0.07282783 0.0020340008 0.01702189 -0.20720848 -0.016246464 -0.37781402 0.0058773546
0.031272143 0.01755046 -0.034379795 0.03231608 0.048849326 -0.0068340143 0.081740946 0.01831528
0.06828363 0.13847911 0.279126 -0.03998983 0.09135437 -0.089571044 -0.121249735 0.15060502
0.07193401 0.048745096 0.0010937154 -0.32228294 -0.020232389 -0.021743994 -0.012896925 0.062095005
-0.278106 -0.010811129 0.044254765 -0.058930732 -0.07597118 -0.030183733 -0.038541004 0.107951134

fc2.bias f4 [64]
00000000: dce2 843b 2349 953c 09fc 903c 63d1 c83c
00000010: 1413 a23d 41df 8ebd 4537 b4bd 094d 673d
00000020: 3692 38bd 3c58 a3bd e970 883d 39b6 753c
00000030: 6d6a 03bd 0e41 22bd fd2a 9b3c b660 b5bd
00000040: ca38 9bbd a431 9b3d 3511 ccbc 2eda eebd
00000050: c375 e73c b4a8 18bd 5fc6 e2bd 4468 09bc
00000060: 3d97 99bd ee4a a4bd 550c c3bc e84f cc3a
00000070: f833 783d 6ea8 1b3d f48c 823c aacd a7bd
00000080: fa27 c23c e927 da3c a97f ccbc 97a5 0f3d
00000090: 54c4 883c 7b09 fabc 0ff2 d0bc f5d4 5cbd
000000a0: e69a c3bc e620 66bd cb18 bcbc 2a5b a8bc
000000b0: 5a8a 06bd e8d8 9ebd f959 a63c a31a 8ebd
000000c0: d682 d9bd 5486 e5bc ec95 b3bd 0355 463c
000000d0: e8fc 78bc d047 cfbd aedd a8bc b210 0a3d
000000e0: b8b0 a5bc 115a c5bd 4c7d 54bd 074c d4bc
000000f0: a5db dabd 879d a7bd 8660 fdbd 31c1 613c
0.004055364 0.01822335 0.017698305 0.024513906 0.07913795 -0.06976176 -0.08799604 0.05646995
-0.045061313 -0.07975814 0.06662161 0.014997059 -0.032083917 -0.039612822 0.018941397 -0.08856337
-0.07579191 0.075778276 -0.024910549 -0.11662708 0.028254395 -0.037270263 -0.110729925 -0.008386675
-0.074995495 -0.08022104 -0.023809591 0.0015587779 0.060596436 0.038002424 0.015936352 -0.08193524
0.023700703 0.026630359 -0.024963217 0.03507003 0.016695179 -0.030522099 -0.025506048 -0.05391403
-0.023877572 -0.05618372 -0.022961041 -0.020551283 -0.032846786 -0.07756215 0.020306574 -0.06938674
-0.10620658 -0.028018154 -0.0876883 0.012105229 -0.015197016 -0.10121119 -0.020613518 0.03370733
-0.020225868 -0.096363194 -0.051877305 -0.025915159 -0.10686425 -0.08184343 -0.12371926 0.013778971

fc3.weight f4 [64, 64]
00000000: ef99 a9bc 5635 65bd 16db a33d 6be1 0cbb
00000010: 6ea9 003e bdaa 9d3d d2e7 9ebd 78ef bd3d
00000020: 97c8 093d d06d 86bd 9228 4abd 1799 b2bc
00000030: c515 e73d 760a 833d 5e21 cd3c 724d e9bd
00000040: 205f 7abd 2e5e 163c 7db0 59bd 99ec 2abd
00000050: 7cdf 62bd fef8 b93d 18e1 48bd 1468 e53d
00000060: f3ac bb3d 0200 4cbc 2d8b 8f3d 1f05 843d
00000070: 5e6c b6bd a3cd 953d 3370 923d e63b ca3d
00000080: d82d c93d 8409 edbd 54df b6bd 52d2 c2bd
00000090: 27ad 62bc fb7f 40bd dffb 41bd 8000 91bc
000000a0: b95f 183d db0a 6c3a 2141 5a3d 90b2 f6bb
000000b0: ab36 25bd 9a57 4e3c 5fde 853b 0d3e 623d
000000c0: 5435 c1bd 5f5a 4b3d 0053 d73c 2443 f1bc
000000d0: 9eb3 963d b365 ffbc 1d1c 97bd 6be1 be3c
000000e0: aff1 4a3d 5e70 113c b00d b33d f103 f8bd
000000f0: a9b6 0d3d af24 ecbd 9821 823d e9ef 773d
00000100: a2ca 18be 6535 8dbd d3d2 8dbd bf57 c7bd
00000110: 5d1e 1b3b 3c0f 8c3d fe08 dcbb 2cca eabc
00000120: f136 ca3c 08de ce3d 29f6 56bd db35 75bc
00000130: ea1e 2fbd 41a5 b0bd e869 36be 0c64 043e
00000140: 8f23 643d e5b6 123e 5b45 663c bc77 313d
00000150: bb4a 57be 1efc 9c3d 3563 a13c 9db8 47be
00000160: dd83 663d 6cf0 b2bd 81c5 93bd 748e eb3d
00000170: 31d3 25be cb26 433e 3107 dfbd 5987 dbbd
00000180: 7b4a 08be 9649 5f3d cb1b 20be 86f9 8e3c
00000190: f5fd 5ebd 2d7d 62be 3c88 b8bd c3cb b4bd
000001a0: 1ed0 073d ab4b 6f3d e24d 373c 8194 47be
000001b0: 9e53 123d 5847 0ebd a91e 50be ab24 f43d
000001c0: f0c0 e8bd 386d 27bd acb4 2abd d9b5 a0bd
000001d0: 97e4 15bd b9c2 05be 87e3 8ebc c86d ea3d
000001e0: 176f 89be 726f 50bd d662 093c 9c3d ba3d
000001f0: 1c3c 91bd 94bd 8bbd 5b52 223d 1581 883c
00000200: 5bbd 013e 85ca 293e 1928 68bc bb66 17bd
00000210: e8fd 31be b124 143e 7643 b1bd 2b10 923c
00000220: 79ce 03be 21b2 c13c a077 a4bd dea2 b83c
00000230: 8452 f33c e196 87bd 80f7 183e 5627 27be
00000240: 2c13 7a3d 6865 6bbe 61ef 6e3d 0148 f33b
00000250: bfa8 343e ae54 023d b66b f03d 8384 cabd
00000260: 906c 46bd 2a87 053d a94f cd3d f3a8 f6bc
00000270: fe15 983c 2406 0cbe 039e 313d 8a15 243d
00000280: 42bf d43d eed9 82bd 56f2 29bc e331 2a3e
00000290: 71c0 87bd 8412 d43d 43e4 803d 13fb 3abd
000002a0: 1095 a8bd dcbb 5e3d 9d24 583d 0cda 233e
000002b0: eb3b 3c3e 286a 643c 6f2e 8cbd 4f09 593d
000002c0: 26b0 ee3d aaab 7a3d 10a5 56bd 2e9c 06be
000002d0: 1331 15bd cdf0 2c3e 34c7 11bc 5538 25be
000002e0: 54fb d63c 7c00 4d3d 915b ae3b 9935 2fbc
000002f0: 8994 bbbd 37cc b7bc fa3b 8dbc f5b9 b73d
00000300: cc8d ac3d 72a2 44bd 71c5 acbb e1db 7bbd
00000310: 85f2 b93d 68e4 7e3d aec2 f03c 05a8 5f3d
00000320: 2498 b8bd 16b1 f03c 4d61 e9bc 23c6 91bc
00000330: 8754 103d d3f5 cb3c e98e c33d d461 82bd
00000340: c494 dcbd a1c8 bcbd f73b d03c 93a5 bb3d
00000350: 5fc2 babd 0bb9 5f3d 30ab 7c3d 5510 8abd
00000360: ab06 c53d 7656 3e3d 36e9 73bd 6f6b 8abd
00000370: e23a ce3d 03f0 94ba 001c a53c e084 2d3d
00000380: aa11 18bd f05b 3dbb 8853 e53d 0cbf 6bbd
00000390: 618f 82bd 0455 fabc 1da6 a4bd ebc6 0e3d
000003a0: 973d edbc ba06 943c c792 823d b9e1 aabd
000003b0: 931a 13bd 65cc dbbd 175d 30bd bcb1 bfbd
000003c0: d037 783d 3817 59bd 0783 b5bd 5801 1a3d
000003d0: 25a5 b6bd 1b96 d5bd c4b5 a6bd 6f2a dfbd
000003e0: e8af 9a3d 4262 a63d 7125 7ebd 4061 ed3d
000003f0: ed4e a9bd a7ea d63d 0099 0c3d 1cf3 a0bd
-0.020703284 -0.05595907 0.08000772 -0.0021496664 0.12564632 0.07698581 -0.0775906 0.09274191
0.033638563 -0.06563914 -0.049355097 -0.021801515 0.11283449 0.0639848 0.025040325 -0.11391725
-0.061125875 0.009177728 -0.053146828 -0.041729543 -0.055388913 0.090806946 -0.04904279 0.11201492
0.09163847 -0.012451174 0.070089675 0.06446289 -0.08907388 0.07314613 0.071503066 0.09874706
0.09823197 -0.115740806 -0.08929315 -0.09512772 -0.013835228 -0.04699705 -0.047359344 -0.017700434
0.037200663 0.0009004303 0.053284768 -0.0075286105 -0.04033534 0.012594128 0.0040853466 0.055234957
-0.09434 0.04964673 0.026284695 -0.02945096 0.07358478 -0.031176424 -0.07378409 0.023300847
0.049546894 0.008876888 0.08742845 -0.12110127 0.034598026 -0.11530434 0.06354064 0.06053153
-0.14921048 -0.0689495 -0.06924977 -0.09733533 0.002366922 0.06838843 -0.006714939 -0.028660856
0.024684401 0.10100943 -0.05248085 -0.014966453 -0.04275409 -0.0862527 -0.17813838 0.1292879
0.055697974 0.14327581 0.014054622 0.04332708 -0.21024601 0.07665275 0.019700626 -0.19504018
0.0562781 -0.08737263 -0.07215405 0.1150178 -0.16193844 0.19057767 -0.108900435 -0.10719175
-0.13309662 0.054513536 -0.15635602 0.017452966 -0.05444141 -0.22118063 -0.0901036 -0.08827927
0.03315746 0.058421772 0.011188002 -0.19490243 0.035724275 -0.034736007 -0.20324196 0.11921056
-0.11364925 -0.040875643 -0.04167621 -0.07847185 -0.036594953 -0.13062562 -0.017442478 0.1144672
-0.26842567 -0.050887533 0.008385381 0.09093782 -0.07091543 -0.068232685 0.03962932 0.016663114
0.1266989 0.16581161 -0.014169716 -0.036963206 -0.17382014 0.14467122 -0.08655445 0.017829975
-0.12871732 0.023644509 -0.08030629 0.022538599 0.029702432 -0.06620575 0.14938164 -0.16323599
0.06105344 -0.22987902 0.05833376 0.007424355 0.17642497 0.031819038 0.11739294 -0.09888556
-0.048443377 0.032599606 0.100249596 -0.030109858 0.018565174 -0.13674217 0.043363582 0.040059604
0.10388042 -0.06389223 -0.010372719 0.16620593 -0.06628502 0.10355094 0.062935375 -0.0456496
-0.082315564 0.054378375 0.052769292 0.16001147 0.18382232 0.013941325 -0.06844794 0.052987393
0.116546914 0.061198868 -0.05240351 -0.13145515 -0.036423754 0.16888733 -0.008897591 -0.1613477
0.02624289 0.05004929 0.005320974 -0.010693931 -0.0915919 -0.022436244 -0.017240513 0.08971015
0.08425483 -0.048006482 -0.0052725603 -0.06148899 0.0907946 0.062229544 0.029389706 0.054603595
-0.090133935 0.029381316 -0.02848878 -0.017794674 0.03523686 0.024897492 0.09548742 -0.063663155
-0.10770562 -0.092179544 0.025419218 0.0916244 -0.091191046 0.05461983 0.061686695 -0.06741396
0.096204124 0.046469174 -0.05954858 -0.067587726 0.10069825 -0.0011363033 0.020154953 0.042363048
-0.03712622 -0.002889391 0.11197573 -0.057555243 -0.063750036 -0.030558117 -0.08039496 0.03485767
-0.028960032 0.018069614 0.06375652 -0.083438344 -0.035914015 -0.107323445 -0.043057527 -0.09360072
0.060600102 -0.05300066 -0.08862882 0.037598938 -0.089182176 -0.10429021 -0.08140138 -0.108967654
0.07553083 0.0812421 -0.062047426 0.115908146 -0.08267007 0.10493975 0.0343256 -0.078588694

fc3.bias f4 [64]
00000000: f9ea 84bd 7c0a 713d ab21 cf3c 8e62 5e3c
00000010: 5a77 9b3c e8ab 333d c246 993c 1bd2 7e3d
00000020: b412 4dbd 2280 f43c 4134 a23c d2a0 4c3d
00000030: 5cf9 633d 336a d7bd d80f c53c 199f 463d
00000040: 9e15 c93c 6e55 333d e8ec 5b3c 77c8 f93c
00000050: d072 6a3d a7bd 143d 7d1a fabd 142e 823d
00000060: 3fc3 d83c abf0 5b3d aac4 a73c 4d82 f03c
00000070: 4866 113d 44a0 f83c a099 42bd da39 84bd
00000080: 8b27 be3c 5c84 113d 4ad3 783d 8fae 513d
00000090: 7c0e 353d f341 52bd dd9b c6bd e03f 913d
000000a0: 20a1 e5bd bb0c 753d ce66 463d 6eea 573d
000000b0: 8d03 5b3c 1332 2abd d787 d93c 33fa 15be
000000c0: 6f07 fdbd ac2d 9cbd a30e bdbd 4c31 aebd
000000d0: 77a9 133d 6ec9 ebbc 7e38 95bd b99c 873d
000000e0: e282 873d b18c edbd ef23 573d 3fec 1bbe
000000f0: d673 333d 3d8b 743d 3fd3 f13c e72c 5c3d
-0.0649013 0.05884789 0.025284609 0.013573302 0.01897781 0.043865114 0.018710498 0.06221209
-0.050066665 0.029846255 0.019800307 0.049958058 0.05565773 -0.10518303 0.024055406 0.04849157
0.02454644 0.043782644 0.013423182 0.030491097 0.0572384 0.03631368 -0.122120835 0.06356445
0.026460288 0.053696316 0.020479519 0.029359007 0.035497934 0.030349858 -0.04750979 -0.06456347
0.023212215 0.03552662 0.060748376 0.051191863 0.044203267 -0.051332425 -0.09697697 0.07092261
-0.11212373 0.059826594 0.048437886 0.052713804 0.013367546 -0.04155166 0.026554031 -0.14646225
-0.123549335 -0.07625899 -0.09231307 -0.085054964 0.036050286 -0.028782573 -0.07286166 0.06621689
0.06616761 -0.115991004 0.052524503 -0.1522684 0.04381164 0.0597031 0.029519675 0.05375376

fc4.weight f4 [2, 64]
00000000: a7cd cf3d f0f3 17bf 173b 943e 2128 413d
00000010: 05b3 c43e 86e6 0a3d 67a9 483f 8e70 7cbf
00000020: d05a 8a3d 6a97 97bb b0e6 02bf 18cf 283d
00000030: ebcf a0be a5e8 9e3d 8514 103f 837a 37bd
00000040: 9809 0c3f c2cd 723e 5e50 cf3e f98b 723d
00000050: 5a87 0abf a6f4 433e e2ae 333d cc39 19bf
00000060: 6383 c13e 7601 39bf b7e7 a03e fa55 c43e
00000070: 6c3e 643e f5e1 9dbd 1b43 12bb 6c9a 12bd
00000080: 7db3 bc3e f3fb 573e 65db 70be cb5f e43d
00000090: 01db 57bd 5551 f9bd 5bff 37bd 262a 29bf
000000a0: 40d0 38bd bfc8 3fbf 2f5f ffbd 135d a0be
000000b0: be8d 133f 5988 8cbd 336b 223e 853a c1bd
000000c0: dd82 0a3c 37f2 da3c 4dfb df3d ef46 bb3d
000000d0: 8f4c 8c3e 3786 f43d 75a1 f23d c7ba 83be
000000e0: 1793 3dbe e7b6 113d 07ea 12bf b4dd cebd
000000f0: c250 dbbe a429 31be 65b1 cb3e 8376 27be
00000100: 642e 23bd 0819 88bb 2cd7 d23e c39b a13d
00000110: 850f 723e 5771 a3be 30fc 8cbd 59b4 7bbc
00000120: 58fe 623d efa7 16bf af71 eb3d 778f a9be
00000130: c57e a23d 6d8a c23d fb69 723e 460c b0be
00000140: 9f37 37be c65e ffbe cc57 d33d 9e22 fd3e
00000150: a2f1 0e3e 28e4 00bf f473 e9bd 58f0 f83e
00000160: 05ee 99be f733 a8bd acea c8bd ca4b 3cbe
00000170: e0b5 f5be 2446 663e 6107 b83d 5447 cb3d
00000180: 5898 b63e 4c95 d9be 8812 e03e 7c06 ebbe
00000190: ec0e df3e e652 f8bd 016c 4cbd 9186 afbe
000001a0: 1cec 2c3d 1b5a ce3c fabb f5be 57fe b73d
000001b0: 509e d9bd 03a1 d13d 3a2b fd3e a3a9 043c
000001c0: 6359 babd dad0 64bc b7cd e83d 60ad 18bb
000001d0: d023 d33e 7206 4ebd f759 133d 854a 063f
000001e0: 6cb1 c5be b380 a63c 1f12 89be 77ed d6bd
000001f0: a8fd a03e 01be d6be 51c6 a73e b8f9 eabe
0.10146647 -0.59356594 0.28951332 0.04715741 0.3841783 0.03391125 0.7838349 -0.98609245
0.06755602 -0.0046262043 -0.5113325 0.041213125 -0.3140863 0.07759217 0.5628131 -0.04479457
0.5470214 0.23711303 0.40491003 0.05921552 -0.5411278 0.19136295 0.043867953 -0.59853816
0.37795553 -0.72267854 0.31426784 0.38346845 0.22289437 -0.077091135 -0.002231783 -0.0357918
0.3685569 0.21092205 -0.23521192 0.111510836 -0.052699093 -0.12173716 -0.04492126 -0.6607994
-0.045120478 -0.7491569 -0.12469327 -0.3132101 0.57638156 -0.06861944 0.15861206 -0.0943499
0.008454052 0.026726825 0.10936604 0.09144389 0.2740216 0.11939662 0.11847202 -0.25728437
-0.18513142 0.03557482 -0.5738835 -0.1010088 -0.4283505 -0.17301041 0.3978378 -0.16353802
-0.039839163 -0.0041533746 0.41179788 0.07891037 0.23638733 -0.3192241 -0.068840384 -0.015362822
0.055418342 -0.58849996 0.11496293 -0.33117267 0.079343356 0.09499059 0.23673241 -0.34384364
-0.17892312 -0.49876994 0.1031948 0.49440473 0.13959363 -0.5034814 -0.113990694 0.48620868
-0.30064407 -0.082130365 -0.09810385 -0.18388286 -0.47990322 0.22487694 0.089857824 0.09925714
0.35663104 -0.42496717 0.43764138 -0.45903385 0.43566072 -0.121251866 -0.049907688 -0.34282354
0.04221736 0.02518945 -0.47994977 0.08984058 -0.10625899 0.10235789 0.49447042 0.008097085
-0.090990804 -0.01396581 0.11367362 -0.00232967 0.4123826 -0.050299115 0.03597447 0.5245746
-0.38611925 0.02032504 -0.26771638 -0.104945116 0.31443524 -0.41941836 0.3276849 -0.45893645

fc4.bias f4 [2]
00000000: 69c0 d33a 87f4 3e3d
0.0016155365 0.04661992

momentum_buffer f4 [64, 5]
00000000: 4511 cf39 0bb8 8c39 482c 7d38 1f5f 86b7
00000010: 74a9 5f3a 3977 2cb0 adc0 0db0 64e7 4faf
00000020: 7479 13b1 e214 0faf b8d4 113b 9a05 0a3a
00000030: 92de 483a 91d4 5b3b eaea 863a 8c8e 1285
00000040: b32a 3185 7cac 2a85 9053 3685 fc7c 6f84
00000050: fe6e 563d 3a30 193d 5b95 0b3c 16a6 a43b
00000060: 1956 663d 0000 0000 0000 0000 0000 0000
00000070: 0000 0000 0000 0000 97ef 22bc fb17 c9bb
00000080: f16c 87ba 34f3 22bb 7599 35bb a5fe 733b
00000090: b8b4 6b3b b856 363b c169 1b3c 0296 f73b
000000a0: c19d 2f3b 8a6c 383b 3091 713b d99b 7c3b
000000b0: e0db 6bb9 0000 0000 0000 0000 0000 0000
000000c0: 0000 0000 0000 0000 a4dc a8bc fb7c 50bc
000000d0: a2f4 53ba c87e ae3a da5d 90bc 72a0 bbbc
000000e0: eeee 10bc b4d7 763a 7e1d 0b3c c0ef ddbc
000000f0: ba8f 51bb d905 a1bb 86a3 e4b9 b447 49ba
00000100: f475 b8ba ee3b 6cbc 2e2e e4bb 7013 16bb
00000110: 1269 eebb 56da 0cbc e628 813c 9edb 323c
00000120: 6230 113c 371a bb3c 5a65 e13c 0000 0000
00000130: 0000 0000 0000 0000 0000 0000 0000 0000
00000140: d312 ba3c 3740 853c d199 3c3c 2439 2f3c
00000150: 06f5 803c b55e e53b bb17 533c 7aaa 3e3c
00000160: 2261 043d 3f3f b13c ba4a d83b 3eb0 093c
00000170: 72a2 e03b 561b 853c 84b2 e63b c948 688e
00000180: e6f5 3a8e 8a4b b58b d76a 008c 3a8c 288c
00000190: 2e24 0dbb 181b 89ba 5ce7 e53a 6d88 573b
000001a0: 58b3 f0b9 1f0d 35bd 8fc4 d1bc 2455 04bc
000001b0: a104 41bc 4584 34bd 0000 0000 0000 0000
000001c0: 0000 0000 0000 0000 0000 0000 6f7b b9bc
000001d0: 672e 66bc 5878 4aba 9207 d93b ea55 9dbb
000001e0: eff7 c3bc c2bb 78bc ded6 45bc b8b3 f8bc
000001f0: 0279 11bd 0000 0000 0000 0000 0000 0000
00000200: 0000 0000 0000 0000 d69b f0ba dc67 23bb
00000210: ae92 23b8 9b88 3cbb 8cf6 b8bb 5aea 87bc
00000220: 6966 43bc 0863 90bb ba22 5f3b d0b8 a8ba
00000230: 884e 2f3b a4ff 273b ba5f 4f3b 08ef 1cbb
00000240: 68f8 cbbb 5bb2 35bc 0068 f6bb f253 21bc
00000250: dc29 7ebc 55c4 aabb d0c1 40bb 24e7 18bb
00000260: 7d79 81bb 2744 b2bb a6f9 25bc fc1f 27bc
00000270: bc68 4abb b547 3dbb 46b8 a7ba 0ee9 a2bc
00000280: 0000 0000 0000 0000 0000 0000 0000 0000
00000290: 0000 0000 4006 78bc 4b8e 33bc c8b9 c1bb
000002a0: 74d1 1dbc a603 2fbc 5aca b4bc 26c0 a2bc
000002b0: e85d 72bc f620 78bc fb8b 08bc 7cc9 113c
000002c0: 0657 cc3b 0645 af3b 1c6e 463b 006a ee3a
000002d0: 6726 b83a c009 1bb7 2c43 523b 1cbc be3a
000002e0: 4831 fab9 00d5 7db7 b1a2 08ba f0d8 2f39
000002f0: 1633 5ebb 74a5 8139 0000 0000 0000 0000
00000300: 0000 0000 0000 0000 0000 0000 fc3f b83b
00000310: f07e 093a acfa f6b9 4742 273b 46ce 023c
00000320: 0000 0000 0000 0000 0000 0000 0000 0000
00000330: 0000 0000 1f13 babc de8d 64bc 4bf9 b3bb
00000340: 1ae3 24bc 0319 a0bc 7231 453c 6d69 863c
00000350: da32 583c 9558 b33c 7ee3 8b3c e401 91ba
00000360: c4be edbb 00c3 cbbb ce0d 81bc 91a5 26bc
00000370: c46e 813b 780f f93a 6488 7c3b bcf4 8d3b
00000380: 4eb6 db3b 0000 0000 0000 0000 0000 0000
00000390: 0000 0000 0000 0000 0000 0000 0000 0000
000003a0: 0000 0000 0000 0000 0000 0000 4214 123c
000003b0: aa0c cc3b 33ef 97bb 106a 57ba 5853 223c
000003c0: ae31 7f3c c1b1 583c c4d1 af3c 54be 073d
000003d0: 9a42 f83c 0000 0000 0000 0000 0000 0000
000003e0: 0000 0000 0000 0000 0000 0000 0000 0000
000003f0: 0000 0000 0000 0000 0000 0000 1ae3 fe3c
0.00039494984 0.00026840004 6.036114e-05 -1.6018339e-05 0.00085320254 -6.274266e-10 -5.156931e-10 -1.8908747e-10
-2.1460353e-09 -1.3013193e-10 0.0022252034 0.0005265117 0.000766256 0.0033543447 0.0010293399 -6.891069e-36
-8.3303426e-36 -8.025042e-36 -8.572947e-36 -2.8151705e-36 0.052351944 0.037399508 0.008519496 0.005024682
0.056234453 0.0 0.0 0.0 0.0 0.0 -0.009944818 -0.006136892
-0.001033215 -0.0024864199 -0.0027709876 0.0037230637 0.003596587 0.0027822684 0.009485663 0.007555724
0.002679691 0.0028140866 0.003686022 0.003854504 -0.00022493256 0.0 0.0 0.0
0.0 0.0 -0.020613022 -0.01272511 -0.00080854644 0.001331293 -0.017622877 -0.022903655
-0.008846028 0.00094162975 0.008490918 -0.02709186 -0.0031976537 -0.004914027 -0.00043609383 -0.0007678226
-0.0014073239 -0.014418585 -0.006963513 -0.002289977 -0.007275709 -0.008596977 0.015766572 0.010916619
0.008861633 0.022839649 0.027514149 0.0 0.0 0.0 0.0 0.0
0.022714054 0.016265972 0.011511282 0.010694776 0.015741836 0.0069998153 0.012884076 0.0116373245
0.032319196 0.021636603 0.006600705 0.008403836 0.0068553025 0.016248386 0.0070403237 -2.8631253e-30
-2.3044666e-30 -6.983232e-32 -9.892912e-32 -1.2984447e-31 -0.0021536457 -0.0010460345 0.0017540264 0.0032887713
-0.0004590999 -0.044201966 -0.025606422 -0.00807694 -0.011780889 -0.044071455 0.0 0.0
0.0 0.0 0.0 -0.022641866 -0.014049149 -0.0007723621 0.006623217 -0.0048015015
-0.023921935 -0.015181484 -0.012075154 -0.030359134 -0.035515793 0.0 0.0 0.0
0.0 0.0 -0.001835699 -0.0024933731 -3.8998834e-05 -0.0028767947 -0.005644625 -0.01659124
-0.011926272 -0.0044063367 0.0034047798 -0.0012872461 0.002674969 0.0025634551 0.003164275 -0.0023946185
-0.0062246807 -0.011089887 -0.007519722 -0.009846674 -0.01551291 -0.005211393 -0.0029412396 -0.002333113
-0.00395125 -0.0054402533 -0.010130322 -0.010200497 -0.003088518 -0.0028881852 -0.0012796007 -0.01988652
0.0 0.0 0.0 0.0 0.0 -0.015138209 -0.010959218 -0.0059120394
-0.009632457 -0.010682022 -0.022069145 -0.019867014 -0.014792897 -0.015144577 -0.008334155 0.008898135
0.00623596 0.0053488044 0.0030278033 0.001818955 0.0014049531 -9.24099e-06 0.0032083495 0.001455191
-0.00047720433 -1.5129568e-05 -0.0005212231 0.00016770116 -0.0033904961 0.0002472807 0.0 0.0
0.0 0.0 0.0 0.005622862 0.00052450504 -0.00047107541 0.0025521682 0.00798375
0.0 0.0 0.0 0.0 0.0 -0.022714196 -0.013949839 -0.0054923645
-0.010063911 -0.019543177 0.012035714 0.016407693 0.013195718 0.021892825 0.01707625 -0.0011063186
-0.007255407 -0.006218314 -0.015753653 -0.01017131 0.003949972 0.0019001802 0.0038533444 0.004332153
0.006705082 0.0 0.0 0.0 0.0 0.0 0.0 0.0
0.0 0.0 0.0 0.008915963 0.0062270956 -0.004636669 -0.00082174037 0.009907566
0.015575809 0.013225974 0.021462329 0.033140495 0.030305196 0.0 0.0 0.0
0.0 0.0 0.0 0.0 0.0 0.0 0.0 0.03111415

momentum_buffer f4 [64]
00000000: f4ea 733a b89c 16b1 532c a43b 1588 6c85
00000010: f6fb 983d 0000 0000 fdb0 64bc 8ed4 1e3c
00000020: 92ab d33b 0000 0000 3ba7 debc 5e78 ffbc
00000030: 7215 45bb e4ee 69bc 5feb 0b3d 0000 0000
00000040: 0ec6 bf3c bc20 ed3c 001c ae3b 53c8 f08e
00000050: 52d6 3dbb e4df 7bbd 0000 0000 8c5a c5bc
00000060: 5221 1fbd 0000 0000 ced4 e8bb ca62 bfbc
00000070: 5847 433b 3586 66bc 6a27 17bc b3fa 8cbc
00000080: 0000 0000 55d6 c2bc b8c7 04bd 90e8 093c
00000090: b428 e43a 9399 2dbb 0000 0000 fe32 0a3c
000000a0: 0000 0000 36d6 0dbd ff36 e13c 2a29 55bc
000000b0: b5b9 0a3c 0000 0000 0000 0000 5bfe 523c
000000c0: 1908 173d 0000 0000 0000 0000 b037 3a3d
000000d0: ac37 d43c f249 493c 0000 0000 a42b 053c
000000e0: 6e88 18be fbac 9c3d dcfd ee3b 3877 073c
000000f0: 249b 663c 4c10 10bd 0000 0000 0000 0000
0.0009304725 -2.1916957e-09 0.0050101667 -1.1121661e-35 0.07469933 0.0 -0.013958213 0.009694232
0.0064596618 0.0 -0.027179351 -0.031185325 -0.0030072597 -0.014278147 0.034160014 0.0
0.02340987 0.028946273 0.0053133965 -5.9357473e-30 -0.0028966856 -0.061492816 0.0 -0.024091028
-0.038850136 0.0 -0.0071054464 -0.023362536 0.0029797163 -0.014070083 -0.009225706 -0.017209386
0.0 -0.023783842 -0.03241703 0.008417264 0.001740715 -0.0026489242 0.0 0.008435009
0.0 -0.034628116 0.027492044 -0.013010303 0.008467128 0.0 0.0 0.012878026
0.036872957 0.0 0.0 0.045463264 0.025905453 0.012285696 0.0 0.0081280805
-0.14895794 0.07650181 0.007293446 0.00826817 0.014075074 -0.035171792 0.0 0.0

momentum_buffer f4 [64, 64]
00000000: 0000 0000 9848 e42f 0324 fdba d028 ff81
00000010: 33d1 86ba 0000 0000 a787 9db9 1969 31b9
00000020: 5870 253b 0000 0000 b57b 49bb 44c7 5538
00000030: 2797 f039 e9d3 213a 00d9 bd37 0000 0000
00000040: 534a 97ba c2d1 45bb d1e7 923a e0c0 8889
00000050: 655d bbba 5a94 54ba 0000 0000 eb79 2cbb
00000060: 7bfc 6cb7 0000 0000 103c e7b9 b290 c2bb
00000070: a148 8b39 20e3 b0bb 0c00 cdb8 9fa5 043a
00000080: 0000 0000 1859 b2ba 4d32 3abb d06e 1fba
00000090: 38d3 ca3a ce8c 8cba 0000 0000 6f09 babb
000000a0: 0000 0000 0c6d 60ba 674f ca3a f866 58ba
000000b0: 58f8 8fbb 0000 0000 0000 0000 ff96 26ba
000000c0: 1db3 46bb 0000 0000 0000 0000 e4a0 8039
000000d0: 2990 0b3b 0a32 4db9 0000 0000 f007 5d39
000000e0: 0ab1 85b9 6022 dfb9 9006 8f38 df7f 59bb
000000f0: bc54 3b3b 716c 34bb 0000 0000 0000 0000
00000100: 509b 5f37 a390 312d 8044 9138 0000 0000
00000110: b96d 34b9 0000 0000 4203 e1b9 cc8f b23a
00000120: fc91 13ba 0000 0000 bc57 6ebc 4346 e2ba
00000130: 1d08 c1ba 78e6 1f3a 6427 f0ba 0000 0000
00000140: 1085 1e3a 5b29 09bb f213 b4b9 0000 0000
00000150: 14ad de38 250b 28bb 0000 0000 9625 e6ba
00000160: a68b f5b9 0000 0000 7818 00ba f257 0cbc
00000170: 69c6 5ab9 ee39 f3bb 9c6f 87ba 7891 1dba
00000180: 0000 0000 a6ca e2ba a403 aebb c25f 613a
00000190: e2b5 f8ba bb9b c0bb 0000 0000 11e0 79bb
000001a0: 0000 0000 8990 2bbb e25c 98bb e467 073a
000001b0: d088 f4ba 0000 0000 0000 0000 067e 47ba
000001c0: 367d 053a 0000 0000 0000 0000 aa29 84ba
000001d0: 2223 b039 c055 1938 0000 0000 aa8d b639
000001e0: 4a6d 43bb f05f 42ba eb37 67b9 ce71 9e39
000001f0: cc8a c6b7 3832 a73a 0000 0000 0000 0000
00000200: e099 53b3 5cc5 c1ae f659 ce39 e0a3 8503
00000210: f64d 1d3b 0000 0000 e47a 9439 83ef 08ba
00000220: 5a6b 80b9 0000 0000 d14b 4d3b ce4e ed39
00000230: d50d dc39 49ff 7dbb e017 dcb8 0000 0000
00000240: 2856 5dbb 4925 60bb 2d90 89bb 20e2 120a
00000250: c484 9cb9 7769 d4ba 0000 0000 7427 c23a
00000260: 235f 8138 0000 0000 d4cc d0bb 4af1 bd3b
00000270: 30fb af39 1335 b33b 7288 d338 35ce 26bb
00000280: 0000 0000 17b8 12bb 3af8 a93b b808 03ba
00000290: f269 bdbb 154f 483b 0000 0000 b282 863b
000002a0: 0000 0000 7617 98bb caff d7bb 6019 8336
000002b0: 208d 0ebb 0000 0000 0000 0000 a037 0c3a
000002c0: cea6 8f39 0000 0000 0000 0000 5c26 3a3a
000002d0: c4f3 8e3a 9cc9 7bb8 0000 0000 eaae e3ba
000002e0: f768 5939 e46f 8b3a eb79 a93a b7cd 223a
000002f0: 641e 7ebb 6842 aa39 0000 0000 0000 0000
00000300: 0000 0000 b8df c92f 8e14 08bb 5820 f481
00000310: fa4d 72bb 0000 0000 4288 3aba d609 1db8
00000320: d5f9 233a 0000 0000 c6e8 9abc 56ea 74ba
00000330: d093 2d3a 0da8 86ba 3cd9 98bb 0000 0000
00000340: a5fe 25bb 06be 4cbb 4091 5337 0077 018a
00000350: 76d0 23ba 1240 5abb 0000 0000 d101 c1bb
00000360: 16d1 0db7 0000 0000 322b cbbb 570f 84bc
00000370: fc10 013a 9d9f 96bc e40b 1ab9 1bd3 903a
00000380: 0000 0000 3b43 3bbb 19d0 38bc 5984 a2ba
00000390: 7843 36bb 84ad adbb 0000 0000 6c38 14bc
000003a0: 0000 0000 9e05 7cbb d38b a7b9 a43f 5ebb
000003b0: c9f5 cfbb 0000 0000 0000 0000 7aea 52ba
000003c0: decb adbb 0000 0000 0000 0000 50c3 3bba
000003d0: 849a f0b9 2bcc 0cba 0000 0000 16d1 8fbb
000003e0: f739 0939 bc3e 06bb 039e 47bb 6c74 a7bb
000003f0: 8e8c 573a 3324 d8bb 0000 0000 0000 0000
0.0 4.152454e-10 -0.00193131 -9.373077e-38 -0.0010285735 0.0 -0.00030046442 -0.00016919187
0.0025243964 0.0 -0.00307439 5.0968738e-05 0.00045888984 0.00061732397 2.2631604e-05 0.0
-0.0011542536 -0.003018484 0.0011208003 -3.2922188e-33 -0.0014294802 -0.00081092643 0.0 -0.0026317786
-1.4125481e-05 0.0 -0.00044104503 -0.005937659 0.0002656626 -0.005398169 -9.7751705e-05 0.000506008
0.0 -0.0013606874 -0.002841133 -0.0006081881 0.0015474325 -0.0010723115 0.0 -0.005677394
0.0 -0.0008561171 0.0015435041 -0.00082550896 -0.0043936186 0.0 0.0 -0.00063548976
-0.0030319162 0.0 0.0 0.00024533935 0.0021295643 -0.00019568964 0.0 0.0002107916
-0.0002549964 -0.00042559486 6.819994e-05 -0.003318779 0.0028584441 -0.0027530456 0.0 0.0
1.3327997e-05 1.0093401e-11 6.926898e-05 0.0 -0.00017207013 0.0 -0.00042917771 0.0013623177
-0.00056293583 0.0 -0.014547285 -0.0017263371 -0.0014727149 0.0006099711 -0.0018322286 0.0
0.00060470495 -0.002092919 -0.00034347136 0.0 0.00010618023 -0.0025641408 0.0 -0.0017558809
-0.00046834088 0.0 -0.00048864586 -0.00856589 -0.00020864014 -0.0074226772 -0.0010332945 -0.0006010751
0.0 -0.0017302826 -0.0053104926 0.0008597338 -0.0018975104 -0.0058779395 0.0 -0.0038127939
0.0 -0.002617868 -0.0046497444 0.0005165322 -0.0018656496 0.0 0.0 -0.00076100265
0.0005092205 0.0 0.0 -0.0010083218 0.00033595512 3.6557904e-05 0.0 0.00034819293
-0.002981978 -0.00074148085 -0.00022050708 0.000302209 -2.3668072e-05 0.0012756055 0.0 0.0
-4.9267214e-08 -8.811682e-11 0.00039358408 7.854661e-37 0.0024002767 0.0 0.0002832032 -0.00052236783
-0.00024494046 0.0 0.0031325708 0.00045262877 0.00041971976 -0.0038756898 -0.000104948645 0.0
-0.0033773277 -0.0034201911 -0.0041980953 7.072174e-33 -0.00029853557 -0.0016205747 0.0 0.0014812783
6.16892e-05 0.0 -0.0063720737 0.005796586 0.0003356575 0.0054689734 0.00010086679 -0.0025452499
0.0 -0.0022387558 0.0051870616 -0.00049985526 -0.005780452 0.0030564715 0.0 0.0041049356
0.0 -0.0046414686 -0.0065917717 3.9070583e-06 -0.0021751598 0.0 0.0 0.0005348865
0.00027399365 0.0 0.0 0.0007101053 0.0010906388 -6.0030827e-05 0.0 -0.0017370854
0.00020733835 0.0010638204 0.0012930011 0.00062104635 -0.0038775438 0.00032474403 0.0 0.0
0.0 3.672065e-10 -0.0020764205 -8.9677855e-38 -0.0036972747 0.0 -0.0007115641 -3.7440877e-05
0.00062551844 0.0 -0.018909823 -0.000934278 0.0006621452 -0.0010273472 -0.004664568 0.0
-0.0025328782 -0.0031241192 1.2610399e-05 -6.2335055e-33 -0.00062490196 -0.003330235 0.0 -0.005890109
-8.4529365e-06 0.0 -0.0062002176 -0.016120596 0.00049234903 -0.018386656 -0.00014691014 0.0011049242
0.0 -0.0028574008 -0.011280083 -0.0012399062 -0.002781121 -0.0053002257 0.0 -0.009046655
0.0 -0.0038455497 -0.000319569 -0.0033912444 -0.0063464385 0.0 0.0 -0.0008045804
-0.005303844 0.0 0.0 -0.0007162588 -0.0004589149 -0.00053709996 0.0 -0.0043889387
0.00013086932 -0.002048417 -0.0030459173 -0.005110314 0.00082225434 -0.006596112 0.0 0.0

momentum_buffer f4 [64]
00000000: 9348 12bc a46e 29bd 3f56 ce3b c199 62bd
00000010: 0afc ed3c 73df 89bd 0000 0000 4a6a e73b
00000020: d90d 86bc 0000 0000 ec65 aa3d 287f 893c
00000030: 20ac b2bc 1cbd 473c 05d9 173d eb8a 283b
00000040: 0000 0000 15e2 923d 5c41 863d 0000 0000
00000050: 59b6 293c 6ccb 153a 0000 0000 7955 f9bc
00000060: db5b 5bbc 9321 7c26 f621 b13b 5abc 62bc
00000070: 62fc 463d a210 013e 2ab5 1dbd 8777 139a
00000080: dec7 a2bc 94bc 673d 10b6 4fbd ca70 64bd
00000090: dac4 813d d412 a0bd 9858 043c cef1 473c
000000a0: e22a b939 bc3c 153d 9086 063d 30ff 06bd
000000b0: 5b6c 21bc a361 40b7 4c49 fbbc 0e2c 99a0
000000c0: 0000 0000 ebe5 463b 0000 0000 06b7 9dbb
000000d0: 5a4b b43b a800 a23c 1e20 04bd d47f 933d
000000e0: 30be 2ebd a01d ba39 b079 123d 8503 89bc
000000f0: 3902 1539 90fb aa3b ed6a ef88 d8e8 fcbb
-0.008928436 -0.04136528 0.0062969024 -0.055322412 0.029050846 -0.06732073 0.0 0.007062231
-0.016364025 0.0 0.08320221 0.016784266 -0.021810591 0.012191083 0.0370722 0.0025717567
0.0 0.07172028 0.06555435 0.0 0.0103584165 0.0005714211 0.0 -0.030436264
-0.013388599 8.7475565e-16 0.00540566 -0.013838852 0.048580535 0.12604001 -0.03850285 -3.049544e-23
-0.019870695 0.056576326 -0.050710738 -0.055771627 0.063363746 -0.07816091 0.008077763 0.012203647
0.000353179 0.036434874 0.032843173 -0.03295821 -0.009852494 -1.1466825e-05 -0.0306746 -2.594836e-19
0.0 0.0030349444 0.0 -0.004813078 0.0055021467 0.019775704 -0.03225719 0.07202116
-0.042661846 0.00035498757 0.03576058 -0.016725311 0.00014210575 0.005217977 -1.4409427e-33 -0.007718187

momentum_buffer f4 [64, 64]
00000000: 8eca 0300 4288 1900 3d76 2a00 44a7 0300
00000010: 0000 0000 2c6f 0e00 0000 0000 0000 0000
00000020: 0000 0000 0000 0000 0000 0000 0000 0000
00000030: be49 1100 9b2a 0c00 0000 0000 0000 0000
00000040: 0000 0000 0000 0000 0000 0000 0000 0000
00000050: 0000 0000 0000 0000 0000 0000 0000 0000
00000060: 0e60 3200 0000 0000 0000 0000 0000 0000
00000070: 0000 0000 9f3b 1100 1108 0600 0000 0000
00000080: 0000 0000 0000 0000 0000 0000 0000 0000
00000090: 0000 0000 0000 0000 0000 0000 0000 0000
000000a0: 0000 0000 0000 0000 0000 0000 0000 0000
000000b0: 0000 0000 0000 0000 0000 0000 0000 0000
000000c0: 0000 0000 0000 0000 0000 0000 0000 0000
000000d0: 0000 0000 0000 0000 0000 0000 0000 0000
000000e0: 0000 0000 0000 0000 b636 2a00 0000 0000
000000f0: 0000 0000 0000 0000 0000 0000 0000 0000
00000100: 026f 6b3a c6e5 cc3a c839 303b b1c1 d73a
00000110: 66e7 a03a e89b 843a 0000 0000 a3f3 9d3a
00000120: 797c 613a 0000 0000 b247 543b dbe4 9d3a
00000130: b653 863a e082 5ab7 b4d5 8939 6efa 873a
00000140: 0000 0000 7bbe 073b 5346 2b3b 0000 0000
00000150: 8c02 49b9 107a f0b3 0000 0000 cb9a bc39
00000160: 2c8e 443b 7804 54a1 413f 58b9 c425 db3a
00000170: f6b0 843a 1c38 743a 663a 883a 0000 0000
00000180: 95a4 aa3a 0938 213a 4242 7c3a f367 c73a
00000190: 6d4a 1a3b 636a a339 2092 0f3a 0027 4c38
000001a0: 47d9 86b7 aefc 2a3a 3e46 203a 55d8 4739
000001b0: 37f8 313a 12b8 36b5 d654 7139 b012 829c
000001c0: 0000 0000 84fa adb7 0000 0000 229f 6f39
000001d0: 4413 463a efe6 22b8 aadf ef3a 0607 cc3a
000001e0: dec9 cf39 e8e3 3838 b8ef c03a 9d88 183b
000001f0: 3a3f 01b7 44c9 58b9 5c15 8685 484f fd39
00000200: b865 073b 5bc4 29ba 0594 83ba e20b f43a
00000210: 1cfc c5b8 fcf7 073a 0000 0000 4cd1 cc38
00000220: b8ff f538 0000 0000 3214 bcba 6e41 aaba
00000230: 76ce 823a 289e fa3a 02ca 4cb9 3c1d a6b7
00000240: 0000 0000 2e32 26ba 0680 66ba 0000 0000
00000250: 4d54 ee39 5fb3 8635 0000 0000 b07a 10ba
00000260: 1080 2c3a c007 e883 a9b3 4539 f809 a2ba
00000270: 8778 64ba 36c8 b9b9 7e45 6e3b c0b8 ac97
00000280: 86bd 6fba fbba 1238 1817 583a 19ea c3b9
00000290: 8507 98ba b2a3 8239 781e 503a e217 a83a
000002a0: 603a 9d30 71fa 4dba 1197 3739 c949 313a
000002b0: 4539 a5b8 7628 1135 e6dd 6a3a ce81 891c
000002c0: 0000 0000 f4b0 0e39 0000 0000 b17c 9f39
000002d0: c6e7 7f39 6051 5b3a f2cc 30ba caf7 65ba
000002e0: f053 db39 0030 af39 f453 b339 2f64 06bb
000002f0: bd98 8c36 2372 433a 0000 0000 400e 60b7
00000300: eebd 2539 64e8 f4b8 baab 56b9 b0d4 e036
00000310: 8d79 20b8 0a24 8d38 0000 0000 ba68 82b8
00000320: 3e01 1138 0000 0000 74c5 c2b9 090a 47b9
00000330: 8511 cc38 34df 8b39 c0af a935 1e21 f836
00000340: 0000 0000 c286 35b9 ae02 49b9 0000 0000
00000350: 3ec0 c038 4230 4db6 0000 0000 6b4e c4b8
00000360: 4883 a438 7017 0b83 26a7 1138 0012 58b9
00000370: 88cb 2bb9 3a38 89b8 c677 8c39 40ff 6996
00000380: 8e36 16b9 e6e3 02b8 46ba 1ab8 96f7 d2b8
00000390: 8692 9bb9 d18c ac37 b480 0339 caf8 3c39
000003a0: 0893 8ab3 0665 1ab9 9f9e 2238 e812 5338
000003b0: 60ed 4d34 f0b3 62b2 dc47 0f38 a754 4498
000003c0: 0000 0000 0882 8137 0000 0000 d48f a538
000003d0: 7cec db36 4560 8d38 3223 76b9 5a36 17b9
000003e0: 603d 0539 9573 2a37 acbc 0cb7 ff67 0bba
000003f0: 1d41 8935 ae98 9238 d011 7804 7c29 beb8
3.4817e-40 2.344767e-39 3.899507e-39 3.3551e-40 0.0 1.325578e-39 0.0 0.0
0.0 0.0 0.0 0.0 1.587657e-39 1.11731e-39 0.0 0.0
0.0 0.0 0.0 0.0 0.0 0.0 0.0 0.0
4.626233e-39 0.0 0.0 0.0 0.0 1.582591e-39 5.53907e-40 0.0
0.0 0.0 0.0 0.0 0.0 0.0 0.0 0.0
0.0 0.0 0.0 0.0 0.0 0.0 0.0 0.0
0.0 0.0 0.0 0.0 0.0 0.0 0.0 0.0
0.0 0.0 3.876717e-39 0.0 0.0 0.0 0.0 0.0
0.000898108 0.0015632443 0.002688991 0.0016460923 0.0012275993 0.0010117264 0.0 0.0012050759
0.0008601617 0.0 0.0032391367 0.0012046354 0.0010248336 -1.3024284e-05 0.00026289898 0.0010374316
0.0 0.00207129 0.0026134446 0.0 -0.00019169803 -1.1198074e-07 0.0 0.00035973484
0.0029991968 -7.183431e-19 -0.00020622929 0.0016719629 0.0010123539 0.0009316222 0.0010393381 0.0
0.001301902 0.00061500125 0.00096229103 0.0015213474 0.0023542896 0.00031169047 0.00054767914 4.867371e-05
-1.6075222e-05 0.00065226376 0.00061139825 0.00019058709 0.0006789001 -6.806814e-07 0.00023015155 -8.607509e-22
0.0 -2.0739863e-05 0.0 0.00022852098 0.00075559714 -3.8838883e-05 0.001830091 0.0015566058
0.0003963252 4.4081273e-05 0.0014719879 0.0023274787 -7.70372e-06 -0.00020674343 -1.2609146e-35 0.0004831499
0.0020659994 -0.00064760976 -0.001003862 0.0018619264 -9.440651e-05 0.0005186794 0.0 9.7664626e-05
0.00011730142 0.0 -0.001434928 -0.001298947 0.0009979743 0.001912062 -0.0001953021 -1.9802355e-05
0.0 -0.0006339875 -0.00087928807 0.0 0.00045457706 1.0035982e-06 0.0 -0.0005511446
0.0006580362 -1.3637514e-36 0.00018854313 -0.001236259 -0.000871547 -0.00035435118 0.0036357339 -1.1161877e-24
-0.00091453677 3.498325e-05 0.00082431873 -0.00037367715 -0.0011598921 0.00024917495 0.00079391105 0.00128245
1.1439845e-09 -0.0007857448 0.00017508517 0.0006763009 -7.8784804e-05 5.407559e-07 0.0008959457 9.099453e-22
0.0 0.00013608095 0.0 0.00030419746 0.00024405037 0.0008366313 -0.00067444064 -0.000877258
0.00041833473 0.00033414364 0.0003420409 -0.0020506491 4.190106e-06 0.00074556674 0.0 -1.3354758e-05
0.0001580638 -0.00011678113 -0.00020472604 6.7004803e-06 -3.8260176e-05 6.730117e-05 0.0 -6.21839e-05
3.457185e-05 0.0 -0.00037149678 -0.00018981857 9.730741e-05 0.00026678445 1.2642631e-06 7.3948313e-06
0.0 -0.00017311706 -0.00019169852 0.0 9.191081e-05 -3.057547e-06 0.0 -9.360615e-05
7.8445824e-05 -4.0875334e-37 3.4726363e-05 -0.00020606071 -0.00016383652 -6.543142e-05 0.0002679212 -1.8902133e-25
-0.00014325438 -3.1206662e-05 -3.6889942e-05 -0.00010059697 -0.00029673072 2.056957e-05 0.00012541079 0.00018021758
-6.4528706e-08 -0.00014724219 3.8771537e-05 5.0323928e-05 1.917847e-07 -1.3195844e-08 3.416078e-05 -2.5375145e-24
0.0 1.5438549e-05 0.0 7.894603e-05 6.554239e-06 6.7413355e-05 -0.000234735 -0.0001442073
0.00012706732 1.0159701e-05 -8.388579e-06 -0.0005317926 1.0226246e-06 6.990261e-05 2.9160439e-36 -9.067633e-05

momentum_buffer f4 [64]
00000000: d2d1 e100 cea8 5a3d 610e 94bc a698 a5bb
00000010: c52d aebc 3c76 dc3c 0c1d acbc b02f 8b3d
00000020: db2d 372c e91c 263d 64cb 303d 449a dc3c
00000030: 9021 ea3c 0000 0000 da6d 37bc e301 ad3c
00000040: 20e6 e839 7913 3b3c b073 7cbc ca13 fabc
00000050: 6cb6 153d 5019 b73c 0000 0000 5e54 b6bc
00000060: 58f4 7cbb 60ac 993d eb45 3cbc 009f 133a
00000070: e16a df3c 88ca 14bc 0000 0000 0000 0000
00000080: 5537 e1bc 3993 c33c b649 1cbc abb1 ea3c
00000090: e101 c1bc 0000 0000 0000 0000 ec4f b73d
000000a0: 0000 0000 8e45 953d ba4d 153d 426f d63c
000000b0: d258 96bc 2cca 8a24 c57d 10bc 0000 0000
000000c0: 0000 0000 0000 0000 0000 0000 0000 0000
000000d0: a2a2 e5bc ad36 f439 0000 0000 4f0b c4bc
000000e0: 9c57 143d 0000 0000 4920 833d 0000 0000
000000f0: 4c84 a43c 4c22 173d 1bfb c9bc 443c 3e3d
2.0738256e-38 0.05338364 -0.018073263 -0.0050535975 -0.021262059 0.026911847 -0.021009944 0.06796205
2.603132e-12 0.040554915 0.04316272 0.026929028 0.028580457 0.0 -0.011195624 0.021119064
0.00044421945 0.011418217 -0.015408441 -0.030527014 0.036550924 0.022350937 0.0 -0.022257026
-0.0038597789 0.07503581 -0.011491279 0.0005631298 0.027272644 -0.00908149 0.0 0.0
-0.027492205 0.023873912 -0.009539058 0.028649172 -0.023560466 0.0 0.0 0.08950791
0.0 0.07288657 0.03645108 0.026176099 -0.0183529 6.019045e-17 -0.008819048 0.0
0.0 0.0 0.0 0.0 -0.02803165 0.00046580043 0.0 -0.023931174
0.036216363 0.0 0.06402642 0.0 0.020082615 0.036897942 -0.02465587 0.046444193
